data.pth (torch, 32426 bytes, 6 tensors)

l1.weight f4 [8, 600]
1.2561191 0.91301477 2.1441643 4.465411 3.0445144 1.6716212 1.0660635 0.41141605
2.231893 1.0578666 2.2862134 0.40563843 1.419257 0.087379076 0.8729124 1.0238405
1.7266185 -0.26866734 0.34626848 -0.9288501 0.036473826 2.9061797 1.0122354 1.6625719
0.5331983 -0.9502553 -0.39994112 2.4496722 -0.073550396 -0.21438903 -0.02460437 0.7468022
1.1520343 2.0883176 0.543137 1.191272 1.7448978 0.35015634 -0.0083613545 1.1493058
0.39881685 1.408296 2.4399946 0.9688873 0.42870533 1.1767412 0.1113887 0.58172417
0.23746333 0.72858226 2.5568578 0.29907307 0.9918178 -0.0013396689 1.8949237 1.5425203
0.7150476 1.7477331 1.2264448 -0.24557245 -0.66589504 1.0607796 0.097350776 0.13894546
0.53085166 1.0656555 -1.0712891 0.4427146 -1.1362268 -0.026188772 0.22936964 0.5560901
0.6828182 1.1074063 1.5925461 0.49757373 0.55644244 1.0617535 0.34357464 0.1916415
1.3690368 1.7578642 1.7137668 0.12531145 1.1524072 0.0152623495 1.0644395 1.5140034
2.0205932 0.40532818 0.003211888 -0.31053293 4.8369126 0.30051976 1.2608669 1.378348
2.8116956 1.7283578 0.0016393685 1.6709793 -0.01503561 -0.38487372 1.8767195 -0.8145385
1.6677554 -0.017354146 2.5880187 -0.62234795 -0.057423398 1.1589062 -0.5136075 0.23410927
1.9423403 0.69413 1.435807 0.07568343 0.50275505 0.64583457 0.66577125 -0.18171068
-0.21975473 1.2438537 0.40436196 1.0655364 0.9355764 -0.54434514 0.46663862 0.014911662
-0.0614924 1.3826513 0.72992617 3.2734845 0.07339747 0.9024066 0.5937537 0.1360062
1.6037853 3.0203967 0.021347623 1.1425859 2.133118 1.0424163 1.3837423 0.51642114
-0.26844403 0.7175783 0.030138148 1.050759 0.04698214 -0.23053406 -0.10537009 -0.5021842
0.28306317 0.78948873 0.64104253 2.6200893 1.2184999 0.6989432 -0.9388113 1.2411796
-1.682634 -0.43703592 2.963823 1.449323 -0.09187663 1.5681245 -0.32049426 -0.28357232
0.6808724 2.0104468 0.051357094 -0.28228042 0.16513133 -0.056239944 0.58674955 -0.34826696
0.48761633 0.8541222 0.08993926 0.19406438 1.0145937 0.13859998 -0.3684814 0.022531
-0.1183385 0.9954929 1.512093 -0.12972951 1.0022861 1.0636216 1.6292049 -0.16896579
0.7395155 0.07867157 0.48480222 1.2239625 2.6049616 2.4792154 -0.7086305 1.1363977
1.0309031 1.68803 -0.46885356 1.2749001 0.19161011 0.02046299 -0.3922029 -0.24943008
-0.2960782 2.0595863 -0.011785436 0.45786482 1.614677 -0.14347064 1.081037 -0.29677626
0.9495025 0.6469253 1.2763269 0.3350121 0.32107154 0.70139164 1.7279468 -0.8344464
0.53962207 2.4981785 0.15127695 1.3900509 1.1158478 1.0201186 1.1689181 0.3731447
0.24428216 1.7632523 1.6607707 1.3670552 -1.1764438 2.5942686 0.26544687 2.973798
-0.46281156 1.3123533 2.634737 1.8730339 -0.26291922 1.2060778 0.28989288 1.1840715
1.7268806 0.5145688 0.0457827 3.5686967 1.0431222 0.15413393 4.2488966 3.7465386
00000000: 83c8 a03f 56bb 693f fd39 0940 a6e4 8e40
00000010: 53d9 4240 aff7 d53f c574 883f 20a5 d23e
00000020: 56d7 0e40 2c68 873f 5251 1240 d7af cf3e
00000030: 37aa b53f cdf3 b23d 3077 5f3f 350d 833f
00000040: d601 dd3f c48e 89be 1a4a b13e 1fc9 6dbf
00000050: 9465 153d d9fe 3940 ee90 813f 28cf d43f
00000060: af7f 083f ee43 73bf 15c5 ccbe 6ec7 1c40
00000070: 97a1 96bd cc88 5bbe 1b8f c9bc 6e2e 3f3f
00000080: dc75 933f ffa6 0540 070b 0b3f 9a7b 983f
00000090: d058 df3f b147 b33e 10fe 08bc 741c 933f
000000a0: b931 cc3e 0b43 b43f df28 1c40 0009 783f
000000b0: 447f db3e 759f 963f c21f e43d e0eb 143f
000000c0: 9629 733e 5e84 3a3f 8fa3 2340 1b20 993e
000000d0: c5e7 7d3f d497 afba dc8c f23f 4e71 c53f
000000e0: 5c0d 373f b8b5 df3f 25fc 9c3f 5877 7bbe
000000f0: 1978 2abf a0c7 873f d85f c73d b847 0e3e
00000100: e5e5 073f 6667 883f 0020 89bf 7dab e23e
00000110: e16f 91bf d689 d6bc e0df 6a3e ec5b 0e3f
00000120: 2ccd 2e3f 7dbf 8d3f 8dd8 cb3f fcc1 fe3e
00000130: 0373 0e3f 8ae7 873f 04e9 af3e ab3d 443e
00000140: 993c af3f b201 e13f b65c db3f a551 003e
00000150: 1482 933f ef0e 7a3c 8e3f 883f ddca c13f
00000160: 6651 0140 2d87 cf3e 8a7e 523b 2cfe 9ebe
00000170: fdc7 9a40 badd 993e 1664 a13f b56d b03f
00000180: d2f2 3340 d43a dd3f 14e0 d63a a6e2 d53f
00000190: eb57 76bc 2b0e c5be 5838 f03f 9885 50bf
000001a0: 0279 d53f 482a 8ebc 19a2 2540 3252 1fbf
000001b0: cc34 6bbd 0a57 943f c87b 03bf 57ba 6f3e
000001c0: 9b9e f83f 81b2 313f 86c8 b73f eaff 9a3d
000001d0: 8eb4 003f 6a55 253f fc6f 2a3f 5d12 3abe
000001e0: 6207 61be 9936 9f3f 8808 cf3e 7f63 883f
000001f0: ef81 6f3f 345a 0bbf 42eb ee3e 0b50 743c
00000200: 74df 7bbd b8fa b03f 71dc 3a3f c580 5140
00000210: 6a51 963d 1e04 673f 3e00 183f 3645 0b3e
00000220: d648 cd3f 2e4e 4140 36e1 ae3c 4140 923f
00000230: 0185 0840 e66d 853f 781e b13f 2d34 043f
00000240: 7f71 89be 36b3 373f 47e4 f63c 457f 863f
00000250: 5870 403d 1f11 6cbe 46cc d7bd 258f 00bf
00000260: a8ed 903e ef1b 4a3f 5d1b 243f 8baf 2740
00000270: cef7 9b3f f1ed 323f f055 70bf f9de 9e3f
00000280: 8d60 d7bf 2cc3 dfbe 47af 3d40 6b83 b93f
00000290: d129 bcbd 4eb8 c83f d317 a4be 6430 91be
000002a0: a74d 2e3f 29ab 0040 d15b 523d 0f87 90be
000002b0: 3018 293e db5b 66bd 3835 163f 0c50 b2be
000002c0: d9a8 f93e c1a7 5a3f 1332 b83d d0b8 463e
000002d0: 35de 813f 27ed 0d3e 98a9 bcbe ef92 b83c
000002e0: 755b f2bd 9fd8 7e3f 438c c13f d0d7 04be
000002f0: e94a 803f c124 883f c989 d03f 5e05 2dbe
00000300: e350 3d3f 8f1e a13d ff37 f83e ceaa 9c3f
00000310: b1b7 2640 77ab 1e40 cf68 35bf 7b75 913f
00000320: a2f4 833f 5e11 d83f 930d f0be ed2f a33f
00000330: 7135 443e 00a2 a73c d2ce c8be 996a 7fbe
00000340: 9097 97be 43d0 0340 b417 41bc 426d ea3e
00000350: bcad ce3f f8e9 12be 6c5f 8a3f 0ff3 97be
00000360: 9912 733f e59c 253f ae5e a33f b586 ab3e
00000370: 7d63 a43e 678e 333f 5c2d dd3f 479e 55bf
00000380: ac24 0a3f 28e2 1f40 58e8 1a3e 30ed b13f
00000390: 1ad4 8e3f 3f93 823f 1c9f 953f d20c bf3e
000003a0: 1a25 7a3e 40b2 e13f 2294 d43f aafb ae3f
000003b0: b695 96bf 7f08 2640 a7e8 873e b552 3e40
000003c0: a3f5 ecbe 31fb a73f 889f 2840 93bf ef3f
000003d0: 599d 86be c260 9a3f d76c 943e a88f 973f
000003e0: 6c0a dd3f c8ba 033f a486 3b3d 8765 6440
000003f0: 0785 853f 49d5 1d3e f6f6 8740 4ac7 6f40

l1.bias f4 [8]
0.8743728 0.8302692 0.73018247 0.20837589 0.20602448 0.17143868 0.68422014 0.8013962
00000000: e5d6 5f3f 868c 543f 3ded 3a3f 7d60 553e
00000010: 15f8 523e 9f8d 2f3e 0d29 2f3f 4d28 4d3f

l2.weight f4 [8, 8]
0.9403322 -1.8001058 1.6021205 1.0164512 -0.11523875 2.0508165 0.79181075 -0.44295174
2.367411 0.5914217 1.1164824 1.560514 2.3100767 -1.0529673 -2.0828664 0.31263936
3.711719 -0.75196433 0.95871305 -1.6629798 1.1994603 1.6487927 1.7068233 0.955772
-0.58746314 1.5969584 0.40477288 0.62602156 1.0549747 -1.1690537 2.1831403 -0.26128477
3.91212 -0.87150425 2.3358727 -1.7153081 -0.5049001 -1.2388266 -0.012855983 4.0681105
3.061973 1.3821796 -0.42870724 -0.81400466 -0.7664548 -0.21708466 -0.80425394 2.458518
2.0153325 -0.5945979 -0.7121665 0.6501916 -0.8730077 1.1453767 -0.7735513 0.6370953
-0.8875701 0.8583659 0.026766615 1.0861342 0.47452042 1.1719993 -1.6242104 0.23268957
00000000: 9cb9 703f de69 e6bf 4912 cd3f 131b 823f
00000010: 4b02 ecbd 9440 0340 1cb4 4a3f 92ca e2be
00000020: a983 1740 6a67 173f e5e8 8e3f ecbe c73f
00000030: 4cd8 1340 a2c7 86bf af4d 05c0 4412 a03e
00000040: ce8c 6d40 bc80 40bf 386e 753f 86dc d4bf
00000050: ea87 993f a40b d33f 3079 da3f 79ad 743f
00000060: fc63 16bf 2269 cc3f 643e cf3e f342 203f
00000070: 6909 873f 8da3 95bf 92b8 0b40 1ec7 85be
00000080: 2d60 7a40 e71a 5fbf f07e 1540 378f dbbf
00000090: 2241 01bf df91 9ebf e7a1 52bc f62d 8240
000000a0: 5ef7 4340 43eb b03f 847f dbbe 9c62 50bf
000000b0: 6236 44bf 714b 5ebe 96e3 4dbf 5c58 1d40
000000c0: 35fb 0040 9137 18bf 8b50 36bf f572 263f
000000d0: 6f7d 5fbf b49b 923f 7507 46bf ad18 233f
000000e0: cb37 63bf debd 5b3f a945 db3c 7206 8b3f
000000f0: 57f4 f23e 1304 963f 20e6 cfbf 2d46 6e3e

l2.bias f4 [8]
0.08447288 0.8523134 -0.7332981 0.5074029 0.7170015 0.6423671 0.32221308 -1.4418683
00000000: 1e00 ad3d 3631 5a3f 6db9 3bbf 28e5 013f
00000010: 698d 373f 2c72 243f 1df9 a43e 248f b8bf

l3.weight f4 [29, 8]
-0.85683894 0.9746526 -4.173473 -1.0940673 1.3832397 -4.725863 -3.6749406 -5.5685024
-4.447017 -0.45404375 -0.60694987 -0.14152476 -1.3384857 -1.5975404 -6.747438 -1.4355929
-5.746009 -4.1393523 0.31932825 -1.8611226 -0.14961192 0.71594095 -2.0813985 -4.2184076
-1.2909024 0.27521256 -6.693193 -0.48513407 0.9784529 -0.5222486 -0.87281877 -1.4648019
-2.7100995 -0.2610107 -0.81444484 -4.0530553 -0.5699384 -0.47444975 -3.7831194 -0.94613075
-0.5229314 -0.22400528 -1.6268458 -2.37227 -1.0841238 -1.5534129 -1.3183173 0.41528794
-2.0960712 0.45733413 -2.4801013 -2.3106785 -1.5296459 -0.36722347 -0.3226385 0.33786345
-2.5198946 -1.935659 -1.1774014 -1.8280329 -0.7384136 0.31798628 -0.12794493 0.2048528
-2.2528684 -0.70590985 -0.24068281 -1.4220281 -2.7313285 0.03330148 -2.328346 0.26850381
-0.9558361 -1.3738502 -0.70207393 -1.8280396 -0.35416874 -1.7129247 -4.6663895 -3.21784
-2.7798572 -3.8518052 -1.3381166 -0.776267 1.094507 -0.7721931 -4.5700774 -3.1044157
-2.1552577 -4.315417 0.52012414 -2.7232704 -0.5091473 0.06042128 -1.4425566 -1.5239625
-0.5655651 0.8723693 -4.4669805 0.17895007 -3.7251265 -0.78025067 -1.3728197 0.5633705
-0.7058251 -1.1209168 -1.1056356 -5.0177484 -0.26386294 -1.2866442 -0.81308454 -0.6948706
-0.5678881 -0.018336369 -2.47843 -3.741692 -2.6609254 0.66096026 1.2121571 0.8351786
-1.6182507 0.27046502 -2.038113 -1.151218 -0.55473423 -2.1473038 -5.2920423 -0.6414582
0.43385044 -1.3480818 0.11721476 0.2445366 -5.085155 -0.8729473 -0.26842442 -0.73177946
-5.3165607 -0.72964275 -3.8580196 -0.64694023 0.9482971 0.14722009 0.54078835 -6.942439
-2.7307103 -1.1798579 -1.937042 -6.1727366 0.4155479 0.6642687 -0.16645396 -4.137976
0.263037 -3.131764 -0.48604164 -3.1381009 -0.39485925 -1.4480772 -0.301634 -0.3883508
-4.5101867 -0.66555506 -3.5311503 -0.42788935 -1.6750178 1.7687252 -0.68728477 -0.86173165
-0.93269426 -0.023414055 -2.7965455 -2.7208903 0.019456657 -1.1504666 -1.4506601 -2.7124386
-3.1391578 -1.2278106 -1.0985526 -2.1273859 -0.14122206 0.0031757222 -6.498124 -2.933438
-0.76736796 0.06397476 -0.46475685 -3.9822252 -0.49409148 -2.69757 -5.4629245 -1.1883492
0.03199496 0.5401708 -3.8515325 0.06587972 -2.1237962 -0.7318362 -1.7762364 0.6871091
-5.7334194 -0.63066095 -1.0020293 -1.2173793 -0.70520824 -0.3617439 -3.7400665 -0.32341206
-0.40083244 -1.259462 -0.2726466 -2.2101874 -0.23048082 -4.2096577 -2.2252955 -0.47752628
-1.0695953 -3.9497988 -0.13997696 -4.9531984 0.71391344 -0.59968925 -1.4441136 -5.632506
0.34887072 -4.7214756 0.1798425 0.31559366 -3.0964534 -0.8888151 -0.09174576 -0.00094253366
00000000: cc59 5bbf d582 793f 178d 85c0 660a 8cbf
00000010: 000e b13f 453a 97c0 3a32 6bc0 2c31 b2c0
00000020: f74d 8ec0 6c78 e8be 1161 1bbf deeb 10be
00000030: 8053 abbf 347c ccbf 03eb d7c0 82c1 b7bf
00000040: 4edf b7c0 9375 84c0 fe7e a33e 4439 eebf
00000050: de33 19be e847 373f a235 05c0 32fd 86c0
00000060: 4a3c a5bf a9e8 8c3e a32e d6c0 7e63 f8be
00000070: e47b 7a3f 16b2 05bf 0d71 5fbf a17e bbbf
00000080: 4572 2dc0 32a3 85be 757f 50bf a1b2 81c0
00000090: 7ce7 11bf 14eb f2be a11e 72c0 a035 72bf
000000a0: d5de 05bf a461 65be 7c3c d0bf 46d3 17c0
000000b0: 92c4 8abf 3cd6 c6bf 9fbe a8bf 9fa0 d43e
000000c0: 0826 06c0 b327 ea3e fbb9 1ec0 28e2 13c0
000000d0: 70cb c3bf b704 bcbe e030 a5be 70fc ac3e
000000e0: f445 21c0 adc3 f7bf 17b5 96bf fbfc e9bf
000000f0: ac08 3dbf 19cf a23e ff03 03be efc4 513e
00000100: ff2e 10c0 82b6 34bf 8e75 76be 0405 b6bf
00000110: 16ce 2ec0 2267 083d 9f03 15c0 5579 893e
00000120: adb1 74bf 53da afbf 1ebb 33bf 34fd e9bf
00000130: 9b55 b5be 1e41 dbbf 1053 95c0 17f1 4dc0
00000140: 2ee9 31c0 fa83 76c0 6847 abbf 6fb9 46bf
00000150: ce18 8c3f 72ae 45bf 133e 92c0 bfae 46c0
00000160: beef 09c0 e517 8ac0 db26 053f 104a 2ec0
00000170: 7a57 02bf 4e7c 773d b2a5 b8bf 3411 c3bf
00000180: e0c8 10bf 9853 5f3f 81f1 8ec0 b03e 373e
00000190: 7968 6ec0 82be 47bf 8eb8 afbf 0d39 103f
000001a0: f4b0 34bf 347a 8fbf 7885 8dbf 6591 a0c0
000001b0: 0b19 87be c2b0 a4bf 4f26 50bf 0ae3 31bf
000001c0: 1d61 11bf 2736 96bc 999e 1ec0 e277 6fc0
000001d0: 9a4c 2ac0 b134 293f f727 9b3f 44ce 553f
000001e0: d722 cfbf 647a 8a3e 7270 02c0 1d5b 93bf
000001f0: 1003 0ebf 6d6d 09c0 6958 a9c0 9b36 24bf
00000200: a521 de3e f28d acbf 4b0e f03d cd67 7a3e
00000210: 97b9 a2c0 7979 5fbf ed6e 89be e655 3bbf
00000220: 4421 aac0 dec9 3abf cbe9 76c0 e09d 25bf
00000230: 99c3 723f ddc0 163e 1b71 0a3f 7628 dec0
00000240: f5c3 2ec0 9505 97bf fef0 f7bf 0f87 c5c0
00000250: b2c2 d43e 830d 2a3f e872 2abe 4d6a 84c0
00000260: c9ac 863e d26e 48c0 73da f8be a5d6 48c0
00000270: fe2a cabe 985a b9bf c66f 9abe ebd5 c6be
00000280: 7353 90c0 d161 2abf 5efe 61c0 5014 dbbe
00000290: fc66 d6bf 9665 e23f e5f1 2fbf 729a 5cbf
000002a0: 0dc5 6ebf d5ce bfbc 9afa 32c0 1123 2ec0
000002b0: 9163 9f3c 7d42 93bf 3baf b9bf 9898 2dc0
000002c0: f6e7 48c0 e628 9dbf 5f9d 8cbf 1727 08c0
000002d0: 849c 10be c71f 503b a2f0 cfc0 73bd 3bc0
000002e0: 3a72 44bf 3305 833d 9cf4 edbe c7dc 7ec0
000002f0: 8ff9 fcbe fda4 2cc0 47d0 aec0 d41b 98bf
00000300: 260d 033d a248 0a3f 827f 76c0 f2eb 863d
00000310: 47ec 07c0 9e59 3bbf b75b e3bf 62e6 2f3f
00000320: 2c78 b7c0 ff72 21bf 7f42 80bf 16d3 9bbf
00000330: 8788 34bf 7f36 b9be 405d 6fc0 4496 a5be
00000340: e939 cdbe 0d36 a1bf 5698 8bbe b673 0dc0
00000350: 2a03 6cbe 84b5 86c0 3e6b 0ec0 537e f4be
00000360: 80e8 88bf 81c9 7cc0 1f56 0fbe 9a80 9ec0
00000370: 08c3 363f 3c85 19bf b7d8 b8bf 7d3d b4c0
00000380: 2f9f b23e 5416 97c0 a228 383e 7e95 a13e
00000390: 4b2c 46c0 6389 63bf 33e5 bbbd 5d14 77ba

l3.bias f4 [29]
-2.0876088 -2.299008 -1.0512056 -0.74282634 -0.93762416 -2.2789874 -1.2161024 -2.5196037
-3.1227703 -3.8529177 -3.2707872 -2.9342906 0.3438693 -2.2930644 -2.7144134 -2.3026252
0.17629229 0.68221307 -0.660226 -4.4007044 -0.66093236 -2.5323884 -2.0521789 -1.809682
-0.14890116 -1.7341894 -3.911104 -0.96856105 0.09625237
00000000: 629b 05c0 f222 13c0 e88d 86bf de29 3ebf
00000010: 2308 70bf eeda 11c0 3ea9 9bbf 3041 21c0
00000020: 78db 47c0 3496 76c0 9454 51c0 6bcb 3bc0
00000030: a30f b03e 91c1 12c0 f3b8 2dc0 365e 13c0
00000040: f785 343e 84a5 2e3f 9204 29bf 92d2 8cc0
00000050: dd32 29bf a712 22c0 e656 03c0 a9a3 e7bf
00000060: 8c79 18be ebf9 ddbf 874f 7ac0 9ef3 77bf
00000070: f61f c53d
